…
1563/1563 [==============================] - 11s 7ms/step - loss: 0.3989 - accuracy: 0.8645 - val_loss: 1.1391 - val_accuracy: 0.6675
Epoch 9/10
1563/1563 [==============================] - 12s 8ms/step - loss: 0.3308 - accuracy: 0.8888 - val_loss: 1.2257 - val_accuracy: 0.6667
Epoch 10/10
1563/1563 [==============================] - 11s 7ms/step - loss: 0.2654 - accuracy: 0.9108 - val_loss: 1.3567 - val_accuracy: 0.6507
Model: "sequential"
_________________________________________________________________
 Layer (type)                Output Shape              Param #
=================================================================
 conv2d (Conv2D)             (None, 30, 30, 32)        896

 max_pooling2d (MaxPooling2  (None, 15, 15, 32)        0
 D)

 conv2d_1 (Conv2D)           (None, 13, 13, 64)        18496

 max_pooling2d_1 (MaxPoolin  (None, 6, 6, 64)          0
 g2D)

 flatten (Flatten)           (None, 2304)              0

 dense (Dense)               (None, 150)               345750

 dense_1 (Dense)             (None, 100)               15100

 dense_2 (Dense)             (None, 10)                1010

=================================================================
Total params: 381252 (1.45 MB)
Trainable params: 381252 (1.45 MB)
Non-trainable params: 0 (0.00 Byte)
_________________________________________________________________
313/313 [==============================] - 1s 2ms/step - loss: 1.3567 - accuracy: 0.6507
Test Loss CIFAR-10: 1.3567413091659546, Test Accuracy CIFAR-10: 0.6506999731063843
…
