…
1563/1563 [==============================] - 10s 7ms/step - loss: 0.1068 - accuracy: 0.9635 - val_loss: 2.2196 - val_accuracy: 0.6427
Epoch 49/50
1563/1563 [==============================] - 11s 7ms/step - loss: 0.1093 - accuracy: 0.9625 - val_loss: 2.1912 - val_accuracy: 0.6357
Epoch 50/50
1563/1563 [==============================] - 10s 7ms/step - loss: 0.1050 - accuracy: 0.9633 - val_loss: 2.2673 - val_accuracy: 0.6327
Model: "sequential"
_________________________________________________________________
 Layer (type)                Output Shape              Param #
=================================================================
 conv2d (Conv2D)             (None, 30, 30, 32)        896

 max_pooling2d (MaxPooling2  (None, 15, 15, 32)        0
 D)

 conv2d_1 (Conv2D)           (None, 13, 13, 64)        18496

 max_pooling2d_1 (MaxPoolin  (None, 6, 6, 64)          0
 g2D)

 flatten (Flatten)           (None, 2304)              0

 dense (Dense)               (None, 150)               345750

 dense_1 (Dense)             (None, 100)               15100

 dense_2 (Dense)             (None, 10)                1010

=================================================================
Total params: 381252 (1.45 MB)
Trainable params: 381252 (1.45 MB)
Non-trainable params: 0 (0.00 Byte)
_________________________________________________________________
313/313 [==============================] - 1s 2ms/step - loss: 2.2673 - accuracy: 0.6327
Test Loss CIFAR-10: 2.2673428058624268, Test Accuracy CIFAR-10: 0.6327000260353088
